intro/lightning_logs/version_8/checkpoints/epoch=2-step=1001.ckpt (torch, 297963 bytes, 6 tensors)

l1.weight f4 [2, 12288]
000000 81 51 ed bd 45 a0 fe bd a3 c2 ef bd 21 b6 ef bd
       -0.11587811 -0.12432913 -0.11707046 -0.1170466
000010 93 4c fb bd 16 5e e8 bd 11 cb 00 be 42 85 03 be
       -0.12270465 -0.113460705 -0.12577464 -0.12843803
000020 54 76 eb bd 6d bd fd bd 54 72 01 be e1 c4 f9 bd
       -0.11497179 -0.12389646 -0.12641269 -0.12195755
000030 81 55 00 be b9 9d 00 be 48 7f 02 be 33 72 f2 bd
       -0.12532617 -0.12560166 -0.12743866 -0.11838188
000040 d6 5b e6 bd 1d b8 e8 bd 7b a9 e5 bd 35 94 e8 bd
       -0.11247985 -0.11363242 -0.112139665 -0.11356393
000050 f2 d1 00 be 38 46 f1 bd e7 ba ff bd 40 ba f8 bd
       -0.12580088 -0.11780971 -0.12486821 -0.12144899
000060 46 e1 ee bd c0 92 e3 bd e2 a4 f4 bd 62 d5 fa bd
       -0.11664061 -0.11111975 -0.119455114 -0.12247731
000070 a0 80 f1 bd 8d 95 01 be db bc f6 bd f9 39 fb bd
       -0.117921114 -0.12654705 -0.1204774 -0.12266917
000080 a9 b0 e7 bd af f7 fd bd f4 19 03 be ae 16 f2 bd
       -0.11312992 -0.124007575 -0.12802869 -0.11820732
000090 c0 c5 fe bd dc 4c fe bd cb ba fd bd b2 a0 f7 bd
       -0.124400616 -0.124170035 -0.123891436 -0.12091197
0000a0 2a d8 03 be 95 53 03 be df 5e f5 bd e9 58 e7 bd
       -0.12875429 -0.12824853 -0.11980986 -0.11296255
0000b0 ef 0a ed bd fb ca f6 bd 30 75 f5 bd f3 0b e6 bd
       -0.11574351 -0.12050434 -0.11985242 -0.11232748
0000c0 59 43 f7 bd 58 09 f2 bd 47 6a e6 bd 31 4c f7 bd
       -0.120733924 -0.118181884 -0.112507395 -0.12075079
0000d0 dc 99 ef bd 83 46 ff bd fe 03 f1 bd 18 a7 03 be
       -0.11699268 -0.12464621 -0.117683396 -0.1285671
0000e0 35 a5 e7 bd 6a b6 ef bd 44 fc ea bd 37 5a 02 3e
       -0.113108076 -0.117047146 -0.11473897 0.12729727
0000f0 4c 96 e3 bd 6a 8e e8 bd bb d0 f6 bd 9d 2a f7 bd
       -0.11112651 -0.11355288 -0.12051531 -0.12068675
000100 e0 48 f4 bd bb 95 f2 bd 39 56 ea bd 2f 87 fc bd
       -0.11927962 -0.11844965 -0.11442227 -0.12330472
000110 5c 82 f5 bd 30 30 ff bd 89 a8 03 be b4 97 e9 bd
       -0.11987755 -0.12460363 -0.1285726 -0.11405888
000120 12 3d fc bd 01 ab 03 be 15 a0 00 be 7e 70 e6 bd
       -0.12316336 -0.12858202 -0.12561066 -0.11251925
000130 82 82 03 be dc d9 e8 bd 9e 0e e8 bd 69 22 f2 bd
       -0.12842754 -0.113696784 -0.11330913 -0.118229695
000140 cd 38 e7 bd 39 ef e8 bd b5 19 01 be c3 ac f4 bd
       -0.11290131 -0.11373753 -0.12607463 -0.11947014
000150 6b a2 f6 bd 5a 9a f7 bd fc 82 f5 bd ee 2d fe bd
       -0.120426975 -0.12089987 -0.11987874 -0.12411104
000160 5a c0 f8 bd d6 93 00 be 0d 1b f5 bd e3 28 ec bd
       -0.12146063 -0.12556395 -0.1196805 -0.11531236
000170 02 46 ef bd 22 0b e5 bd 4a fd fc bd 49 fa e8 bd
       -0.11683275 -0.11183764 -0.123529986 -0.11375863
000180 71 5c f3 bd 2a 57 fe bd f7 dc f2 bd c7 dc f2 bd
       -0.11882866 -0.12418969 -0.11858552 -0.11858516
000190 ec c5 eb bd 77 01 f0 bd 43 01 00 be e7 f2 f2 bd
       -0.1151236 -0.117190294 -0.12500481 -0.11862736
0001a0 19 34 f3 bd 3b 3d 01 be 89 ce 03 be 37 9b e7 bd
       -0.11875171 -0.12621014 -0.12871756 -0.11308902
0001b0 ef ef fc bd 8f 78 f1 bd 9c e8 e5 bd bc 61 ed bd
       -0.12350451 -0.11790573 -0.11226007 -0.11590907
0001c0 a2 1a 02 be 04 56 ee bd fe 7a f0 bd 36 1e e5 bd
       -0.12705472 -0.116375 -0.11742209 -0.11187403
0001d0 d4 56 01 be 29 4c 02 be ed 08 03 be 30 96 f4 bd
       -0.12630779 -0.12724365 -0.12796374 -0.119427085
0001e0 51 fd f1 bd 60 87 fb bd d9 b6 ee bd ba db f6 3d
       -0.118158944 -0.1228168 -0.11655969 0.12053628
0001f0 89 05 e6 bd 84 f1 fb bd a4 e1 e8 bd ad 0e ee bd
       -0.112315245 -0.12301925 -0.113711625 -0.11623893
000200 91 de f1 bd aa 03 e7 bd 4f 50 f0 bd 7f 00 ee bd
       -0.11810029 -0.11279996 -0.11734068 -0.11621188
000210 6e 90 fd bd 57 76 fa bd bc 9f f7 bd 51 62 f0 bd
       -0.123810634 -0.12229603 -0.12091014 -0.11737502
000220 af 34 01 be 39 71 e4 bd 11 8c eb bd cf 6f f7 bd
       -0.12617753 -0.11154408 -0.11501325 -0.12081873
000230 8b 61 ee bd 8b 6e e8 bd 3e 49 00 be 5b e7 03 be
       -0.116396986 -0.113492094 -0.1252794 -0.12881224
000240 9b e0 ff bd 32 c6 f4 bd 27 53 03 be 74 39 fa bd
       -0.12494012 -0.11951865 -0.12824689 -0.122179896
000250 68 d7 f2 bd fd f7 f8 bd f3 42 02 be 59 2b ee bd
       -0.11857492 -0.12156675 -0.12720852 -0.11629362
000260 0f 28 01 be f1 d7 fa bd 24 0f 02 be 99 e2 ee bd
       -0.12612937 -0.12248219 -0.12701088 -0.11664314
000270 e9 8e e7 bd 86 b5 f7 bd 7d b9 fb bd cf 0c 00 be
       -0.11306555 -0.1209517 -0.122912385 -0.12504886
000280 98 20 fc bd 87 c4 e9 bd 11 41 e4 bd 6b 44 03 be
       -0.12310904 -0.11414438 -0.11145223 -0.12819068
000290 fd e8 f5 bd 75 d5 fd bd 8f e3 f6 bd 71 34 e7 bd
       -0.120073296 -0.12394229 -0.12055122 -0.11289299
0002a0 b3 60 00 be 9c cd f0 bd 7c bc 01 be e0 8a e9 bd
       -0.12536888 -0.11757967 -0.12669557 -0.114034414
0002b0 5f 29 02 be c6 29 f5 bd b4 0e 00 be b2 af ee bd
       -0.12711094 -0.11970858 -0.12505609 -0.11654605
0002c0 8a 42 f3 bd c3 53 e5 bd e0 06 f4 bd d5 92 e9 bd
       -0.11877926 -0.11197617 -0.11915374 -0.11404959
0002d0 be 84 f9 bd 53 fa f2 bd 65 fe eb bd dc ca f5 bd
       -0.12183522 -0.11864152 -0.11523131 -0.12001583
0002e0 b2 e5 e3 bd a3 31 e5 bd b8 7b eb bd 59 33 00 be
       -0.11127795 -0.11191108 -0.11498207 -0.12519588
0002f0 dd 52 fe bd 9c d5 ec bd 65 73 f2 bd 7e 6e eb bd
       -0.12418149 -0.1156418 -0.11838416 -0.11495684
000300 34 d2 ea bd 0b f9 fa bd 2f e9 fe bd d0 9c e6 bd
       -0.11465874 -0.122545324 -0.1244682 -0.11260378
000310 a5 9f f5 bd d0 1c 03 be d7 bc 02 be 18 e0 eb bd
       -0.119933404 -0.1280396 -0.12767349 -0.11517352
000320 f0 74 fd bd f6 4d 01 be b1 fd f6 bd 50 7c fa bd
       -0.1237582 -0.12627396 -0.120601065 -0.12230742
000330 7e 55 f2 bd 9c 81 ee bd b5 21 01 be 56 28 04 be
       -0.118327126 -0.11645815 -0.12610514 -0.12906012
000340 b3 f8 02 be 78 df ff bd 81 13 f5 bd 3d a2 00 be
       -0.12790184 -0.12493795 -0.11966611 -0.12561889
000350 1f 72 fd bd 4b 2a 00 be 90 d6 f8 bd fa 41 00 be
       -0.123752825 -0.12516133 -0.121502995 -0.12525168
000360 47 f4 eb bd c6 5c f0 bd 79 fa e8 bd 72 ab eb bd
       -0.115212016 -0.11736445 -0.11375899 -0.1150731
000370 8c f7 00 be d0 f5 ef bd 61 b6 02 be a7 cd ee bd
       -0.12594432 -0.11716807 -0.12764885 -0.11660319
000380 36 cf ee bd 68 d8 00 be bd 92 f0 bd ad fa f2 bd
       -0.11660616 -0.12582552 -0.11746738 -0.11864219
000390 c6 ed e4 bd 75 9a fc bd c7 dd f1 bd 51 55 fa bd
       -0.11178164 -0.12334148 -0.11809879 -0.12223304
0003a0 13 37 e6 bd 64 41 e5 bd 77 aa f1 bd 9e 6f fa bd
       -0.11240973 -0.11194113 -0.11800092 -0.122283205
0003b0 b8 c2 02 be a0 b2 e4 bd 36 f7 f6 3d 9a 76 eb 3d
       -0.12769592 -0.111668825 0.120588705 0.11497231
0003c0 82 99 00 be 2d b9 02 3e 0f ef fb bd 4e 01 03 be
       -0.12558559 0.12765951 -0.12301456 -0.12793466
0003d0 3b 84 e5 bd bc 8c f4 bd d0 f2 ff bd d8 03 f9 bd
       -0.112068616 -0.119409055 -0.12497485 -0.12158936
0003e0 90 86 f9 bd 22 1f 02 be ca 75 e8 bd 66 dc e8 bd
       -0.12183869 -0.12707189 -0.113505915 -0.11370163
0003f0 7d a3 00 be 64 03 fa bd 4d e3 fd bd 52 b0 e4 bd
       -0.12562366 -0.12207678 -0.1239687 -0.11166443

l1.bias f4 [2]
000000 f8 96 f4 bd ea e4 0f be
       -0.119428575 -0.14052168

exp_avg f4 [2, 12288]
000000 04 00 00 00 04 00 00 00 04 00 00 00 04 00 00 00
       6e-45 6e-45 6e-45 6e-45
000010 04 00 00 00 04 00 00 00 04 00 00 00 04 00 00 00
       6e-45 6e-45 6e-45 6e-45
000020 04 00 00 00 04 00 00 00 04 00 00 00 04 00 00 00
       6e-45 6e-45 6e-45 6e-45
000030 04 00 00 00 04 00 00 00 04 00 00 00 04 00 00 00
       6e-45 6e-45 6e-45 6e-45
000040 04 00 00 00 04 00 00 00 04 00 00 00 04 00 00 00
       6e-45 6e-45 6e-45 6e-45
000050 04 00 00 00 04 00 00 00 04 00 00 00 04 00 00 00
       6e-45 6e-45 6e-45 6e-45
000060 04 00 00 00 04 00 00 00 04 00 00 00 04 00 00 00
       6e-45 6e-45 6e-45 6e-45
000070 04 00 00 00 04 00 00 00 04 00 00 00 04 00 00 00
       6e-45 6e-45 6e-45 6e-45
000080 04 00 00 00 04 00 00 00 04 00 00 00 04 00 00 00
       6e-45 6e-45 6e-45 6e-45
000090 04 00 00 00 04 00 00 00 04 00 00 00 04 00 00 00
       6e-45 6e-45 6e-45 6e-45
0000a0 04 00 00 00 04 00 00 00 04 00 00 00 04 00 00 00
       6e-45 6e-45 6e-45 6e-45
0000b0 04 00 00 00 04 00 00 00 04 00 00 00 04 00 00 00
       6e-45 6e-45 6e-45 6e-45
0000c0 04 00 00 00 04 00 00 00 04 00 00 00 04 00 00 00
       6e-45 6e-45 6e-45 6e-45
0000d0 04 00 00 00 04 00 00 00 04 00 00 00 04 00 00 00
       6e-45 6e-45 6e-45 6e-45
0000e0 04 00 00 00 04 00 00 00 04 00 00 00 04 00 00 80
       6e-45 6e-45 6e-45 -6e-45
0000f0 04 00 00 00 04 00 00 00 04 00 00 00 04 00 00 00
       6e-45 6e-45 6e-45 6e-45
000100 04 00 00 00 04 00 00 00 04 00 00 00 04 00 00 00
       6e-45 6e-45 6e-45 6e-45
000110 04 00 00 00 04 00 00 00 04 00 00 00 04 00 00 00
       6e-45 6e-45 6e-45 6e-45
000120 04 00 00 00 04 00 00 00 04 00 00 00 04 00 00 00
       6e-45 6e-45 6e-45 6e-45
000130 04 00 00 00 04 00 00 00 04 00 00 00 04 00 00 00
       6e-45 6e-45 6e-45 6e-45
000140 04 00 00 00 04 00 00 00 04 00 00 00 04 00 00 00
       6e-45 6e-45 6e-45 6e-45
000150 04 00 00 00 04 00 00 00 04 00 00 00 04 00 00 00
       6e-45 6e-45 6e-45 6e-45
000160 04 00 00 00 04 00 00 00 04 00 00 00 04 00 00 00
       6e-45 6e-45 6e-45 6e-45
000170 04 00 00 00 04 00 00 00 04 00 00 00 04 00 00 00
       6e-45 6e-45 6e-45 6e-45
000180 04 00 00 00 04 00 00 00 04 00 00 00 04 00 00 00
       6e-45 6e-45 6e-45 6e-45
000190 04 00 00 00 04 00 00 00 04 00 00 00 04 00 00 00
       6e-45 6e-45 6e-45 6e-45
0001a0 04 00 00 00 04 00 00 00 04 00 00 00 04 00 00 00
       6e-45 6e-45 6e-45 6e-45
0001b0 04 00 00 00 04 00 00 00 04 00 00 00 04 00 00 00
       6e-45 6e-45 6e-45 6e-45
0001c0 04 00 00 00 04 00 00 00 04 00 00 00 04 00 00 00
       6e-45 6e-45 6e-45 6e-45
0001d0 04 00 00 00 04 00 00 00 04 00 00 00 04 00 00 00
       6e-45 6e-45 6e-45 6e-45
0001e0 04 00 00 00 04 00 00 00 04 00 00 00 04 00 00 80
       6e-45 6e-45 6e-45 -6e-45
0001f0 04 00 00 00 04 00 00 00 04 00 00 00 04 00 00 00
       6e-45 6e-45 6e-45 6e-45
000200 04 00 00 00 04 00 00 00 04 00 00 00 04 00 00 00
       6e-45 6e-45 6e-45 6e-45
000210 04 00 00 00 04 00 00 00 04 00 00 00 04 00 00 00
       6e-45 6e-45 6e-45 6e-45
000220 04 00 00 00 04 00 00 00 04 00 00 00 04 00 00 00
       6e-45 6e-45 6e-45 6e-45
000230 04 00 00 00 04 00 00 00 04 00 00 00 04 00 00 00
       6e-45 6e-45 6e-45 6e-45
000240 04 00 00 00 04 00 00 00 04 00 00 00 04 00 00 00
       6e-45 6e-45 6e-45 6e-45
000250 04 00 00 00 04 00 00 00 04 00 00 00 04 00 00 00
       6e-45 6e-45 6e-45 6e-45
000260 04 00 00 00 04 00 00 00 04 00 00 00 04 00 00 00
       6e-45 6e-45 6e-45 6e-45
000270 04 00 00 00 04 00 00 00 04 00 00 00 04 00 00 00
       6e-45 6e-45 6e-45 6e-45
000280 04 00 00 00 04 00 00 00 04 00 00 00 04 00 00 00
       6e-45 6e-45 6e-45 6e-45
000290 04 00 00 00 04 00 00 00 04 00 00 00 04 00 00 00
       6e-45 6e-45 6e-45 6e-45
0002a0 04 00 00 00 04 00 00 00 04 00 00 00 04 00 00 00
       6e-45 6e-45 6e-45 6e-45
0002b0 04 00 00 00 04 00 00 00 04 00 00 00 04 00 00 00
       6e-45 6e-45 6e-45 6e-45
0002c0 04 00 00 00 04 00 00 00 04 00 00 00 04 00 00 00
       6e-45 6e-45 6e-45 6e-45
0002d0 04 00 00 00 04 00 00 00 04 00 00 00 04 00 00 00
       6e-45 6e-45 6e-45 6e-45
0002e0 04 00 00 00 04 00 00 00 04 00 00 00 04 00 00 00
       6e-45 6e-45 6e-45 6e-45
0002f0 04 00 00 00 04 00 00 00 04 00 00 00 04 00 00 00
       6e-45 6e-45 6e-45 6e-45
000300 04 00 00 00 04 00 00 00 04 00 00 00 04 00 00 00
       6e-45 6e-45 6e-45 6e-45
000310 04 00 00 00 04 00 00 00 04 00 00 00 04 00 00 00
       6e-45 6e-45 6e-45 6e-45
000320 04 00 00 00 04 00 00 00 04 00 00 00 04 00 00 00
       6e-45 6e-45 6e-45 6e-45
000330 04 00 00 00 04 00 00 00 04 00 00 00 04 00 00 00
       6e-45 6e-45 6e-45 6e-45
000340 04 00 00 00 04 00 00 00 04 00 00 00 04 00 00 00
       6e-45 6e-45 6e-45 6e-45
000350 04 00 00 00 04 00 00 00 04 00 00 00 04 00 00 00
       6e-45 6e-45 6e-45 6e-45
000360 04 00 00 00 04 00 00 00 04 00 00 00 04 00 00 00
       6e-45 6e-45 6e-45 6e-45
000370 04 00 00 00 04 00 00 00 04 00 00 00 04 00 00 00
       6e-45 6e-45 6e-45 6e-45
000380 04 00 00 00 04 00 00 00 04 00 00 00 04 00 00 00
       6e-45 6e-45 6e-45 6e-45
000390 04 00 00 00 04 00 00 00 04 00 00 00 04 00 00 00
       6e-45 6e-45 6e-45 6e-45
0003a0 04 00 00 00 04 00 00 00 04 00 00 00 04 00 00 00
       6e-45 6e-45 6e-45 6e-45
0003b0 04 00 00 00 04 00 00 00 04 00 00 80 04 00 00 80
       6e-45 6e-45 -6e-45 -6e-45
0003c0 04 00 00 00 04 00 00 80 04 00 00 00 04 00 00 00
       6e-45 -6e-45 6e-45 6e-45
0003d0 04 00 00 00 04 00 00 00 04 00 00 00 04 00 00 00
       6e-45 6e-45 6e-45 6e-45
0003e0 04 00 00 00 04 00 00 00 04 00 00 00 04 00 00 00
       6e-45 6e-45 6e-45 6e-45
0003f0 04 00 00 00 04 00 00 00 04 00 00 00 04 00 00 00
       6e-45 6e-45 6e-45 6e-45

exp_avg_sq f4 [2, 12288]
000000 75 2a 80 35 d4 c6 74 35 6f 9e 6a 35 64 78 46 35
       9.5491e-07 9.1186416e-07 8.7402344e-07 7.393594e-07
000010 a9 e4 34 35 48 b1 44 35 47 73 16 35 e6 f0 b2 34
       6.738797e-07 7.327367e-07 5.6047105e-07 3.333036e-07
000020 4a de c9 34 10 5d c3 34 6a 1e 00 35 2f e7 bf 34
       3.7600904e-07 3.6389292e-07 4.7727974e-07 3.574473e-07
000030 57 01 bd 34 f5 77 25 35 09 a3 2e 35 c0 8d 18 35
       3.5204968e-07 6.164185e-07 6.50573e-07 5.6830686e-07
000040 96 1a 2e 35 f3 aa ff 34 3e 0d da 34 d1 6b cc 34
       6.485874e-07 4.7621833e-07 4.06153e-07 3.8076408e-07
000050 0e 4f dc 34 02 62 b4 34 5b 8e bf 34 f4 e1 10 35
       4.1035713e-07 3.3598923e-07 3.56801e-07 5.3972985e-07
000060 3d 0f 78 35 cf ad b1 35 73 73 92 35 ac 6e 30 35
       9.2409374e-07 1.3238113e-06 1.0911448e-06 6.572616e-07
000070 e2 a5 6c 35 93 8e 82 35 d2 1c 86 35 f4 ef 3a 35
       8.815824e-07 9.727249e-07 9.992166e-07 6.963958e-07
000080 4b 81 1d 35 62 e2 17 35 11 a3 c8 34 72 b3 ef 34
       5.8675204e-07 5.6581314e-07 3.737155e-07 4.4647783e-07
000090 d3 9b 0e 35 7d a7 c8 34 2d 57 12 34 15 80 c8 33
       5.3125876e-07 3.7374767e-07 1.3629024e-07 9.336524e-08
0000a0 e6 00 65 33 3a 76 da 33 a4 d6 49 34 4e c2 ae 34
       5.3319035e-08 1.0172921e-07 1.879767e-07 3.25514e-07
0000b0 d2 9e e3 34 1e 97 6c 34 78 f9 ef 33 e8 ab e4 33
       4.2397602e-07 2.2034189e-07 1.1174683e-07 1.0648347e-07
0000c0 92 01 43 34 52 76 15 34 49 02 5b 34 e3 c8 3f 34
       1.8161361e-07 1.3919751e-07 2.0396796e-07 1.7861343e-07
0000d0 8b 22 97 33 aa 22 03 34 36 32 d6 33 1d 3c e2 33
       7.037769e-08 1.2212936e-07 9.974285e-08 1.05348796e-07
0000e0 12 d9 8e 33 be aa d6 32 89 f9 dc 31 d8 cc 20 2f
       6.651875e-08 2.4990523e-08 6.4312116e-09 1.462469e-10
0000f0 51 57 75 30 19 e5 f0 31 73 06 b3 30 0a 82 b1 31
       8.9254565e-10 7.0109647e-09 1.3025797e-09 5.1661617e-09
000100 30 8f 3f 35 11 ec 55 35 ce 39 57 35 af 8d 28 35
       7.136141e-07 7.9692205e-07 8.017786e-07 6.2791054e-07
000110 e4 17 11 35 79 65 3d 35 96 69 54 35 2b 1d 06 35
       5.4051475e-07 7.055565e-07 7.91298e-07 4.9961335e-07
000120 50 78 b9 34 c7 cd 0a 35 e3 2a 20 35 c3 42 db 34
       3.4546474e-07 5.170845e-07 5.9667053e-07 4.0840504e-07
000130 0a 3e 89 34 bd 68 74 34 4b 21 cd 34 d3 eb a9 34
       2.5563378e-07 2.2762374e-07 3.820845e-07 3.1650288e-07
000140 93 9f dc 34 cf cf d2 34 73 21 d3 34 dd 6d d7 34
       4.10943e-07 3.926675e-07 3.932615e-07 4.0126807e-07
000150 d9 fa c8 34 cf 17 44 34 8e 05 80 34 eb 4e c5 34
       3.743542e-07 1.8262584e-07 2.38459e-07 3.675153e-07
000160 fc 2f 0c 35 6b da 44 35 7b ab 0e 35 cb e3 b3 34
       5.222389e-07 7.333353e-07 5.314866e-07 3.350709e-07
000170 a8 0e 2c 35 d6 4f 56 35 64 17 87 35 d7 5b 16 35
       6.409632e-07 7.983739e-07 1.0065091e-06 5.6013e-07
000180 a3 68 eb 34 7a 91 c2 34 46 33 91 34 da 4e ab 34
       4.3848294e-07 3.6241164e-07 2.704566e-07 3.1908604e-07
000190 e9 72 1d 35 f2 3d 12 35 0d 9e 96 34 c8 10 ae 34
       5.8654274e-07 5.447938e-07 2.8054674e-07 3.2422236e-07
0001a0 06 4b 29 34 95 df 72 34 f3 b1 ad 34 a8 79 d3 34
       1.5766645e-07 2.2619345e-07 3.2353236e-07 3.939033e-07
0001b0 eb 97 16 35 12 f5 b3 34 d8 f8 18 34 31 bd 9f 33
       5.6100424e-07 3.351966e-07 1.4246632e-07 7.438428e-08
0001c0 21 d1 cb 33 7b a7 98 33 37 f3 71 34 f7 cd 8d 34
       9.4909645e-08 7.108516e-08 2.2533355e-07 2.6413156e-07
0001d0 02 ff 16 34 c0 db 27 34 0d 96 9a 34 70 de dc 34
       1.406261e-07 1.5633032e-07 2.8793912e-07 4.1140038e-07
0001e0 f9 3f a1 34 23 96 e4 33 04 14 f4 31 fa c5 77 31
       3.0035133e-07 1.0644387e-07 7.10361e-09 3.6055767e-09
0001f0 87 8d 63 32 11 d1 f4 32 0a f2 92 32 36 7a da 30
       1.3245319e-08 2.8500411e-08 1.7106704e-08 1.5896322e-09
000200 50 09 03 35 15 8d 08 35 42 93 01 35 17 e6 ef 34
       4.8814854e-07 5.086925e-07 4.8270533e-07 4.4684631e-07
000210 20 28 e0 34 e6 29 48 35 7f 4a 63 35 51 4f 2c 35
       4.1752446e-07 7.4566776e-07 8.4672496e-07 6.4190414e-07
000220 88 3a 1b 35 8d c4 20 35 2a e9 e4 34 43 16 ae 34
       5.7827174e-07 5.9890664e-07 4.263796e-07 3.2426223e-07
000230 d2 fc 10 34 cb ac 30 34 e0 b8 90 34 7b 97 9f 34
       1.350302e-07 1.6454139e-07 2.6956604e-07 2.9726274e-07
000240 db a4 f5 34 c5 2a 03 35 da 31 f0 34 f9 b0 f8 34
       4.5754754e-07 4.886354e-07 4.4739755e-07 4.6322364e-07
000250 5c ee fd 34 09 6a 8a 34 43 9b 8d 34 b9 1c ac 34
       4.7298352e-07 2.5781654e-07 2.6376264e-07 3.2058395e-07
000260 63 20 e9 34 29 19 04 35 ae 48 b3 34 4f ff 76 34
       4.3423196e-07 4.9210445e-07 3.339423e-07 2.3003416e-07
000270 0a ef 07 35 01 2a 1f 35 7c d8 51 35 79 17 1a 35
       5.0639267e-07 5.929324e-07 7.8173593e-07 5.740363e-07
000280 d6 f1 0f 35 b2 41 ef 34 78 63 80 34 9f cc 84 34
       5.362357e-07 4.456502e-07 2.391423e-07 2.4735797e-07
000290 dd 2c e5 34 16 35 b4 34 51 ae 02 34 e7 0f 99 34
       4.2687216e-07 3.3566238e-07 1.217061e-07 2.851004e-07
0002a0 3b e8 62 34 6f 1d 94 34 40 f2 f7 34 10 a3 b0 34
       2.1132375e-07 2.7588564e-07 4.6183595e-07 3.2901198e-07
0002b0 d1 b4 e6 34 89 5b 9c 34 1a 74 0a 33 1c e6 c8 32
       4.29724e-07 2.9123865e-07 3.2236223e-08 2.3387706e-08
0002c0 71 b4 5a 33 42 6f 65 32 fb 8e 0c 34 21 73 b2 34
       5.092119e-08 1.33548514e-08 1.3090532e-07 3.323885e-07
0002d0 ac 92 b1 34 6b fc c1 34 01 73 f9 34 24 5d 01 35
       3.3075537e-07 3.613271e-07 4.646354e-07 4.819178e-07
0002e0 ab 0b c2 34 85 e7 42 34 e6 8b 8a 33 93 84 ae 32
       3.6143805e-07 1.8151884e-07 6.451573e-08 2.0316554e-08
0002f0 fd b7 15 34 53 9f 37 34 ab f5 84 33 f7 b7 06 32
       1.3943641e-07 1.7101165e-07 6.191416e-08 7.841655e-09
000300 60 38 fd 34 46 0d e0 34 db 9f f1 34 76 67 f4 34
       4.716594e-07 4.173291e-07 4.5006058e-07 4.552382e-07
000310 4e 6d 1d 35 49 59 71 35 f9 4b 40 35 02 3d 17 35
       5.8646117e-07 8.9909423e-07 7.163613e-07 5.634066e-07
000320 72 54 0f 35 92 6d d6 34 b1 ff 9c 34 fa e4 82 34
       5.3394535e-07 3.994033e-07 2.9243304e-07 2.438099e-07
000330 1a 8d 01 34 27 fe 51 34 5d b0 a8 34 2b 82 07 35
       1.2065394e-07 1.9557102e-07 3.142076e-07 5.048084e-07
000340 fd f3 2f 35 1c 8f 0a 35 40 18 08 35 73 e7 1b 35
       6.554763e-07 5.161726e-07 5.0699236e-07 5.80788e-07
000350 37 01 1a 35 3e f4 de 34 ca 4d f6 34 ee fb d5 34
       5.737124e-07 4.1528432e-07 4.587767e-07 3.9857645e-07
000360 8b 75 08 35 62 e8 09 35 0f 3b e1 34 c2 aa c5 34
       5.0834996e-07 5.137464e-07 4.1952487e-07 3.6818352e-07
000370 55 e0 2e 35 16 1d 23 35 82 3b 41 35 07 ad 47 35
       6.51465e-07 6.076456e-07 7.19847e-07 7.4385065e-07
000380 c9 27 15 35 47 d5 0f 35 4e 71 dd 34 9f 87 b1 34
       5.556472e-07 5.358201e-07 4.1246898e-07 3.3067496e-07
000390 95 9a 86 34 21 44 47 34 d1 6c c7 33 64 05 56 34
       2.5071918e-07 1.8558104e-07 9.286453e-08 1.9932264e-07
0003a0 d0 70 53 34 56 aa 0f 34 be 78 e9 33 f8 b0 3d 32
       1.9691947e-07 1.337988e-07 1.0871871e-07 1.1041486e-08
0003b0 53 8e 07 32 00 8b 32 32 67 62 bc 32 47 1d d4 30
       7.890395e-09 1.0392569e-08 2.1930829e-08 1.5433351e-09
0003c0 6d 33 40 2f 88 16 80 2f c9 bc 4f 33 e0 af 7a 34
       1.7480568e-10 2.3299074e-10 4.8367642e-08 2.3347047e-07
0003d0 5c 88 b7 34 4d 61 04 35 65 72 c5 34 31 44 bf 34
       3.418562e-07 4.9315423e-07 3.6777342e-07 3.5626138e-07
0003e0 ce 4f 92 34 09 f2 86 34 63 0f a7 33 2e 17 d9 32
       2.7252685e-07 2.513555e-07 7.779342e-08 2.5272666e-08
0003f0 70 54 81 34 32 07 a5 34 50 8c 02 34 c9 ec ef 32
       2.408956e-07 3.073888e-07 1.2158239e-07 2.793094e-08

exp_avg f4 [2]
000000 04 00 00 00 04 00 00 00
       6e-45 6e-45

exp_avg_sq f4 [2]
000000 da 31 22 35 11 26 e2 38
       6.0422246e-07 0.0001078361
